…
          "base_uri": "https://localhost:8080/",
          "height": 0
        },
        "id": "9bx7nT79CXzM",
        "outputId": "64fc6376-9e46-49f5-f9cd-b093f94400c3"
      },
      "outputs": [
        {
          "output_type": "stream",
          "name": "stdout",
          "text": [
            "Model: \"sequential_3\"\n",
            "_________________________________________________________________\n",
            " Layer (type)                Output Shape              Param #   \n",
            "=================================================================\n",
            " lstm_12 (LSTM)              (924, 20, 50)             11400     \n",
            "                                                                 \n",
            " dropout_12 (Dropout)        (924, 20, 50)             0         \n",
            "                                                                 \n",
            " lstm_13 (LSTM)              (924, 20, 50)             20200     \n",
            "                                                                 \n",
            " dropout_13 (Dropout)        (924, 20, 50)             0         \n",
            "                                                                 \n",
            " lstm_14 (LSTM)              (924, 20, 50)             20200     \n",
            "                                                                 \n",
            " dropout_14 (Dropout)        (924, 20, 50)             0         \n",
            "                                                                 \n",
            " lstm_15 (LSTM)              (924, 50)                 20200     \n",
            "                                                                 \n",
            " dropout_15 (Dropout)        (924, 50)                 0         \n",
            "                                                                 \n",
            " dense_3 (Dense)             (924, 6)                  306       \n",
            "                                                                 \n",
            "=================================================================\n",
            "Total params: 72306 (282.45 KB)\n",
            "Trainable params: 72306 (282.45 KB)\n",
            "Non-trainable params: 0 (0.00 Byte)\n",
            "_________________________________________________________________\n"
…
